models/baseline.pth (torch_old, 213155 bytes, 12 tensors)

weight f4 [12, 3, 4, 4]
0	0x3da1ed5f	0.07906603
1	0x3d2812cd	0.041033555
2	0x3deeec36	0.116661474
3	0xbc4eb56d	-0.012616497
4	0xbd7fab7d	-0.062419403
5	0x3aaad6eb	0.0013034021
6	0x3e1717f4	0.14755231
7	0x3c0be249	0.008537837
8	0xbd9c9e0e	-0.07647334
9	0x3b6b42bf	0.0035897938
10	0x3e228091	0.15869357
11	0x3b87b6fd	0.004141687
12	0xbdb60339	-0.088873334
13	0x3de14ae5	0.11000613
14	0xbda38b49	-0.07985551
15	0xbd52475d	-0.05133759
16	0xbd830e37	-0.06399196
17	0xbd6f035e	-0.05835282
18	0x3c5a99a8	0.013342299
19	0x3df72f29	0.12069542
20	0x3de19dd3	0.11016431
21	0xbd2525bb	-0.040319186
22	0x3c1fd863	0.00975618
23	0xbc89ecd3	-0.01683656
24	0xbd843931	-0.06456221
25	0x3e1a5176	0.15070137
26	0xbd690036	-0.056884967
27	0x3c4518aa	0.012029806
28	0x3e26cd72	0.16289309
29	0x3c92c706	0.017917167
30	0x3df4b5fb	0.119487725
31	0xbdf46540	-0.119333744
32	0x3d864582	0.06556226
33	0xbcbd5ce8	-0.02311559
34	0x3b431a73	0.0029770404
35	0xbdadedf1	-0.08492649
36	0x3e04128c	0.128977
37	0x3d9e1817	0.077194385
38	0x3e0c4a66	0.13700256
39	0x3dd737a1	0.10508657
40	0x3e1549ba	0.14578906
41	0xbc9c675f	-0.01909226
42	0x3d2a0443	0.04150797
43	0xbddfce88	-0.109280646
44	0xbbe79dfc	-0.0070683938
45	0x3e17d67c	0.14827913
46	0xbd9159e9	-0.07097227
47	0xbd4fca74	-0.050730184
48	0xbe165a08	-0.14682782
49	0xbd5f880e	-0.05457311
50	0xbdc63397	-0.09677809
51	0x3d94a218	0.072574794
52	0x3d3c74af	0.046009716
53	0x3d83b286	0.06430535
54	0xbd0af7e7	-0.033927824
55	0xbd89f0d1	-0.06735385
56	0xbd9102d3	-0.07080617
57	0xbc77cf56	-0.015125116
58	0x3d7f00c4	0.06225659
59	0x3da077d4	0.078353554
60	0x3c27b584	0.010236148
61	0xbe032e08	-0.12810528
62	0xb877ab50	-5.9048936e-05
63	0x3dc8196b	0.09770473
64	0xbe098720	-0.13430452
65	0xbe2a56e0	-0.16634703
66	0xbe14cfc5	-0.14532383
67	0xbd2bf990	-0.04198605
68	0xbd75c972	-0.060006566
69	0xbd9b3d72	-0.07580079
70	0x3d225c97	0.03963908
71	0xbe103eb2	-0.14086416
72	0xbde5f548	-0.11228424
73	0xbd32ada0	-0.043622613
74	0x3da618f7	0.081102304
75	0xbe15bcdb	-0.14622824
76	0x3d485e95	0.048918325
77	0x3c36a028	0.011146583
78	0x3d535466	0.05159416
79	0x3d935e6e	0.071957454
80	0xbe08c700	-0.13357162
81	0xbd942411	-0.072334416
82	0xbe10b56e	-0.1413171
83	0x3cb9b905	0.022671232
84	0xbde5ac46	-0.11214499
85	0x3d3e3fd0	0.046447575
86	0x3ddeb644	0.10874608
87	0xbcb65d47	-0.022261275
88	0x3d299e4c	0.04141073
89	0x3d6b627a	0.05746696
90	0xbd51b98a	-0.051202334
91	0xbdac6a6d	-0.084187366
92	0xbdd7ad3e	-0.1053109
93	0xbe283f3e	-0.16430375
94	0xbcd4f220	-0.02599436
95	0xbc93a86e	-0.01802465
96	0x3d9310f0	0.07180965
97	0xbb7a85bd	-0.0038226687
98	0x3d62d6df	0.0553807
99	0x3d9f148e	0.07767592
100	0xbc0d9ca3	-0.008643302
101	0xbde6c5fb	-0.112682305
102	0x3e177f53	0.14794664
103	0x3ce84d44	0.028357156
104	0x3db24ee6	0.08706455
105	0x3d9449c6	0.07240634
106	0x3df5fe3d	0.12011383
107	0x3e1ea10e	0.15491125
108	0xbc2f7a9a	-0.010710383
109	0x3d38f964	0.045159712
110	0xbc3d29f3	-0.011545646
111	0xbd3fb0c7	-0.046799447
112	0x3d13b101	0.036057476
113	0x3d55796d	0.052117754
114	0xbd027295	-0.031847555
115	0x3d53f065	0.05174293
116	0xbdaeaa58	-0.08528584
117	0x3de73605	0.112896
118	0x3dee7d26	0.11644964
119	0x3e02fb44	0.12791163
120	0x3c84832f	0.016175834
121	0x3dd1d519	0.10245723
122	0x3de4ef0b	0.11178406
123	0x3d8520d7	0.06500404
124	0xbdebd029	-0.11514313
125	0x3d6507cb	0.055915635
126	0x3df1ec4c	0.11812648
127	0x3c0a822e	0.008453889
128	0x3d27745d	0.040882457
129	0x3dc297d0	0.09501612
130	0xbda5a9c4	-0.08089021
131	0x3e100af7	0.14066683
132	0x3dfbdfdc	0.12298557
133	0xbd82c909	-0.06386001
134	0x3c8cfb55	0.017209688
135	0x3e26a6df	0.16274594
136	0x3dc143ac	0.094367355
137	0xbc68a3a1	-0.014199168
138	0x3e153f02	0.14574817
139	0x3d444d0f	0.04792505
140	0x3d529a56	0.051416717
141	0x3d96da00	0.07365799
142	0xbdab7a79	-0.08372969
143	0x3de5193e	0.11186455
144	0x3de958c0	0.11393881
145	0x3deea084	0.1165171
146	0x3c033a15	0.008009453
147	0x3c82e004	0.01597596
148	0x3d8f7c34	0.07006112
149	0x3e0b9c15	0.1363376
150	0x3d1ee88e	0.038796
151	0x3cd1d8f7	0.025616152
152	0xbdd88358	-0.10571927
153	0x3dd5d848	0.10441643
154	0xbd054eda	-0.0325459
155	0x3e1b5263	0.15168147
156	0x3db23bad	0.087027885
157	0xbdd6cb59	-0.10488004
158	0xbd86dd48	-0.06585175
159	0xbdf1f27a	-0.11813827
160	0xbba0bc44	-0.0049052555
161	0x3b630041	0.0034637603
162	0xbd0d56c2	-0.034506567
163	0xbd893328	-0.066992104
164	0x3defa3ee	0.11701189
165	0x3d97d26a	0.0741318
166	0x3e0f5854	0.13998538
167	0xbdd82751	-0.10554374
168	0x3c50d0b9	0.012745076
169	0xbcf42c8c	-0.029806398
170	0x3d18b777	0.03728434
171	0xbdda1fc5	-0.10650591
172	0x3dd4f149	0.10397584
173	0xbe01887e	-0.12649724
174	0x3cb1213d	0.021622295
175	0x3dae61ae	0.08514725
176	0x3d7c528b	0.061602157
177	0x3c623f9e	0.013809113
178	0x3e00626a	0.12537542
179	0x3b7a60c7	0.0038204656
180	0xbdf91cbd	-0.121636845
181	0x3e1dacab	0.15397899
182	0xbc0b60dc	-0.00850698
183	0xbdce0f42	-0.10061504
184	0x3df3e176	0.11908238
185	0x3d3b0842	0.045662172
186	0xbe0e2c1d	-0.13884015
187	0x3cf66697	0.030078216
188	0xbd8aa35f	-0.06769442
189	0xbd69f5de	-0.057119243
190	0xbccb7a49	-0.024838584
191	0x3d4d408b	0.05011038
192	0x3dbf741d	0.09348319
193	0x3dc5eaa3	0.09663894
194	0xbc4a792b	-0.01235799
195	0x3c983f4b	0.018584868
196	0x3e0b6233	0.13611679
197	0xbd5efbae	-0.05443924
198	0x3df09856	0.11747806
199	0xbdcc4706	-0.09974484
200	0x3dbb374c	0.091414064
201	0x3c4d69a3	0.012537393
202	0xbd466da2	-0.048444398
203	0x3d8f18ca	0.0698715
204	0xbd928b30	-0.07155454
205	0x3db43534	0.0879921
206	0xbdc3d818	-0.09562701
207	0x3e071d1b	0.13194697
208	0x3da8dd8d	0.082453825
209	0xbd34315a	-0.043992378
210	0xbdb64b08	-0.0890103
211	0xbdfce5cf	-0.1234852
212	0xbd1d7f75	-0.03845163
213	0x3c2c3756	0.01051124
214	0x3e1c85a5	0.15285356
215	0xbdd54858	-0.10414189
216	0x3de57ee9	0.11205847
217	0x3d848840	0.064713
218	0xbc1cca9b	-0.009569789
219	0x3d833d36	0.064081594
220	0x3ddc8618	0.10767764
221	0xbce718e4	-0.028210111
222	0xbc6a9fba	-0.014320308
223	0xbd94fd4f	-0.07274877
224	0xbdb94194	-0.09045711
225	0xbd4edb1f	-0.05050194
226	0x3dc60c41	0.09670306
227	0x3dc2da0f	0.095142476
228	0x3ac50578	0.0015031537
229	0x3d9c446b	0.07630237
230	0xbd9c048e	-0.07618056
231	0xbdadd3fa	-0.08487697
232	0x3d92b4b7	0.07163375
233	0xbd2cb930	-0.042168796
234	0xbda30f0a	-0.07961853
235	0xbc4cc1ac	-0.012497347
236	0xbc373074	-0.011180986
237	0x3e215130	0.15753627
238	0x3ce7dc58	0.02830331
239	0xbdde960b	-0.10868462
240	0x3da75fe1	0.08172584
241	0xbdafab1c	-0.085775584
242	0xbc89d886	-0.01682688
243	0xbcd24bb1	-0.025670858
244	0xbdbfb6ad	-0.093610145
245	0xbd944863	-0.07240369
246	0xbda55024	-0.08071926
247	0x3d66f525	0.05638613
248	0xbdc52b6f	-0.09627425
249	0x3dabe8f8	0.08394045
250	0xbe06e3e6	-0.13172874
251	0xbdc9cb81	-0.098532684
252	0xbdf6f8ef	-0.12059199
253	0xbd9c34c9	-0.076272555
254	0xbc983c8a	-0.018583555
255	0x3d6d9b8d	0.058009673

bias f4 [12]
0	0xbd688331	-0.05676574
1	0x3d4519cf	0.048120316
2	0xbd947db5	-0.07250539
3	0xbd52af4f	-0.05143672
4	0x3dfbfd39	0.12304158
5	0x3dc393ad	0.09549651
6	0x3cf72ea9	0.030173616
7	0x3d20c0c9	0.039246354
8	0xbdf50482	-0.119637504
9	0x3d896b13	0.06709876
10	0x3be223b3	0.0069012283
11	0xbcea0567	-0.02856703

weight f4 [24, 12, 4, 4]
0	0x3d5550ee	0.052079134
1	0x3cf19e21	0.029494347
2	0xbd7c4a74	-0.06159444
3	0xbd61e9ba	-0.05515454
4	0x3d406cdf	0.046978828
5	0x3d345196	0.04402312
6	0xbd25df42	-0.04049612
7	0xbcf77679	-0.03020786
8	0x3d28e5a9	0.041234646
9	0x3cab94f2	0.020945046
10	0x3cd516b2	0.026011799
11	0xbd34afa0	-0.0441128
12	0x3c7c43a4	0.015396986
13	0xbcc0a087	-0.023514045
14	0xbd950b73	-0.072775744
15	0x3c45c4b7	0.012070826
16	0xbd0e84e9	-0.03479472
17	0x3c2d4362	0.010575147
18	0x3d7668f7	0.060158696
19	0xbc92ce74	-0.01792071
20	0x3dafdcd0	0.085870385
21	0x3db4b5f9	0.08823771
22	0x3d4d1671	0.05007023
23	0x3ca5e330	0.020249933
24	0xbceccdf9	-0.02890681
25	0xbce16f66	-0.02751894
26	0x3d85e479	0.06537718
27	0x3db42017	0.08795183
28	0x3da01aed	0.07817636
29	0x3d96d9bf	0.073657505
30	0x3d78b787	0.0607219
31	0x3c9cbb81	0.019132378
32	0xbd5b0932	-0.053475566
33	0x3c47cacd	0.012194348
34	0xbc06d867	-0.008230305
35	0x39cff4d5	0.0003966453
36	0xbdac1cac	-0.08403906
37	0x3d06447a	0.032780148
38	0xbc93bb0d	-0.018033529
39	0x3d3ff911	0.046868388
40	0xbd189695	-0.03725298
41	0xbd58e19d	-0.052949537
42	0xbc8801aa	-0.016602356
43	0x3d47d873	0.048790406
44	0x3d6d2349	0.05789498
45	0xbd03ef07	-0.032210376
46	0xbced6275	-0.028977612
47	0xbd59c501	-0.053166393
48	0x3d7430b3	0.059616756
49	0x3daff164	0.085909635
50	0x3bbb22d3	0.0057109385
51	0x3db166b1	0.08662165
52	0xbc9d2cd7	-0.01918642
53	0x3cbc716f	0.023003308
54	0x3c41e888	0.011835225
55	0x3d80df11	0.062925465
56	0xbb0929c1	-0.0020929428
57	0xbc690c34	-0.014224101
58	0xbccc0fe4	-0.024909921
59	0x3c7bb620	0.015363246
60	0x3c493616	0.0122809615
61	0x3d4ab485	0.049488563
62	0x3bed3f87	0.007240239
63	0xbd6ac818	-0.05731973
64	0x3bc75458	0.0060830526
65	0xbc084abe	-0.008318601
66	0xbc45edd4	-0.012080628
67	0x3c4431da	0.011974776
68	0x3daa0806	0.083023116
69	0x3da5691d	0.080766894
70	0xbd17e5e1	-0.037084464
71	0xbd1b4e8f	-0.037916716
72	0xbd057eb5	-0.03259154
73	0x3d8da2c5	0.069158114
74	0xbc887aac	-0.016660057
75	0xbcaf706a	-0.021415908
76	0x3db1a385	0.08673767
77	0xbd335335	-0.043780524
78	0xbce292da	-0.027657915
79	0x3d7906e2	0.06079758
80	0x3d859b3d	0.0652375
81	0x3ca379a2	0.01995546
82	0x3c9715e0	0.018443048
83	0x3c897c5e	0.016782936
84	0x3d1b51e9	0.037919912
85	0x3daf74cc	0.08567199
86	0x3d23537e	0.039874546
87	0x3b665b94	0.00351498
88	0x3ca65681	0.02030492
89	0x3b016877	0.0019746104
90	0x3dc52d5b	0.096277915
91	0x3dad8b46	0.0847383
92	0xbbf28d4a	-0.007402097
93	0x3d956da2	0.072963014
94	0x3da9d48d	0.08292494
95	0x3ceb9cc0	0.028761268
96	0xbcedbaa7	-0.029019667
97	0x3da61ad0	0.08110583
98	0x3d0e7c62	0.03478659
99	0x3d83453e	0.06409691
100	0xbbbcd16a	-0.005762269
101	0x3d27755b	0.040883403
102	0x3db6ad3d	0.08919761
103	0xbd2eceba	-0.04267762
104	0x3dc2bda2	0.09508826
105	0x3d87de78	0.066342294
106	0xbd14dfc5	-0.036346216
107	0x3d6ed058	0.05830416
108	0x3d420ac8	0.047373563
109	0x3a915ab2	0.0011089651
110	0x3c6ea2a2	0.014565142
111	0xbcfb741a	-0.03069501
112	0x3d833c1b	0.064079486
113	0xbd50ad81	-0.050946716
114	0x3d9ca237	0.076481275
115	0xbcbc90ee	-0.023018327
116	0xbc41313e	-0.011791525
117	0xbd0f92a5	-0.03505196
118	0x3dc2b8bb	0.09507891
119	0x3cc5eda2	0.024161164
120	0x3bc67b31	0.006057166
121	0x3da7dba6	0.081961915
122	0x3c8803d5	0.01660339
123	0x3d27dc80	0.04098177
124	0x3d291243	0.04127718
125	0x3c64a855	0.013956149
126	0x3c97de7d	0.018538708
127	0x3d9876bd	0.074445225
128	0x3dac2a29	0.08406479
129	0x3c43f490	0.011960164
130	0xbd18cd26	-0.03730502
131	0x3d798229	0.060915146
132	0xbbffa96a	-0.007802178
133	0xb9b7ed7d	-0.00035081423
134	0xba6d2ec1	-0.00090477994
135	0xbd7fa083	-0.062408935
136	0xbcdd3f3f	-0.027007697
137	0xbd88a05f	-0.06671213
138	0xbcc03579	-0.023462998
139	0x3d59b572	0.053151555
140	0x3d87de79	0.0663423
141	0xbd2f9c70	-0.0428738
142	0x3d0b29a8	0.033975273
143	0x3d491a3a	0.049097277
144	0xbd981e6a	-0.07427676
145	0x3b500e54	0.0031746821
146	0xbc9cd01b	-0.019142201
147	0xbbc7f86b	-0.006102612
148	0xbd9711fe	-0.073764786
149	0x3d28e27c	0.041231617
150	0x3ccb68fc	0.024830334
151	0x3d0b9999	0.03408203
152	0x3c75573f	0.014974414
153	0x3b11f31d	0.002227015
154	0x3d1bcfa9	0.038039837
155	0xbd17c3ed	-0.037052084
156	0x3d6b4a05	0.057443637
157	0x3c133a8e	0.0089861285
158	0xbd51c877	-0.05121657
159	0xbcda4908	-0.026646152
160	0xbcadf42b	-0.021234592
161	0xbd02a3a6	-0.03189435
162	0x3d879c03	0.06621554
163	0x3cd23232	0.0256587
164	0x3d8edffd	0.06976316
165	0x3d491919	0.0490962
166	0x3d9a9fbb	0.075499974
167	0x3c6dc080	0.014511228
168	0xbcc93881	-0.024563076
169	0x3dae7a5a	0.085194305
170	0x3d6368af	0.055519756
171	0x3c93cb31	0.018041225
172	0xbb82b57b	-0.0039889193
173	0x3c8084fd	0.015688414
174	0xbd0d808d	-0.034546424
175	0xbcf9f6b7	-0.03051315
176	0xbb6a47d8	-0.0035748389
177	0x3cee02a0	0.029053986
178	0x3d02a6c1	0.03189731
179	0x3d020021	0.031738404
180	0x3d0a99b1	0.033837978
181	0xbcefd9eb	-0.029278716
182	0x3938c508	0.00017621007
183	0x3d0f9e87	0.035063293
184	0xbd1d8117	-0.038453188
185	0x3d25dac3	0.04049183
186	0xbd8e373f	-0.06944131
187	0x3d703f80	0.05865431
188	0xbd2473ce	-0.040149502
189	0x3ce7678f	0.028247623
190	0x3ce8a6a4	0.028399773
191	0x3d402436	0.046909533
192	0xbd4a50e5	-0.049393553
193	0xbd3a3b2f	-0.045466598
194	0xbd38725b	-0.045030933
195	0xbcaacba3	-0.020849055
196	0xbcccb10f	-0.024986772
197	0x3d70e766	0.05881443
198	0xbb30c6f6	-0.0026974059
199	0x3d6276f8	0.05528924
200	0x3d4ffbe9	0.05077735
201	0x3db408e6	0.0879076
202	0xbce67ccb	-0.028135678
203	0x3cc3b9d7	0.023892326
204	0x3beb8d71	0.007188492
205	0xbd229d78	-0.039700955
206	0x3cf066ea	0.029345948
207	0x3d1355f3	0.03597064
208	0x3d96d24a	0.07364328
209	0x3c83f5d0	0.016108423
210	0x3d820fec	0.06350693
211	0x3d002e4a	0.031294145
212	0xbd3432fb	-0.04399393
213	0xbc33b757	-0.010969005
214	0x3d8caffe	0.06869505
215	0xbd3e5aeb	-0.046473425
216	0xbc177c82	-0.009245994
217	0xbc3bb9b4	-0.011457849
218	0xbd6e98f2	-0.05825133
219	0x3cc4c13c	0.024017923
220	0x3d94eb33	0.07271423
221	0xbcb23bcc	-0.021757029
222	0xbd3b823d	-0.0457785
223	0xbca2af08	-0.019858852
224	0xbc6f0104	-0.0145876445
225	0x3d5e6327	0.054293778
226	0xba633ba7	-0.00086682517
227	0x3d1b1f7b	0.03787182
228	0xbd2e55df	-0.04256236
229	0x3d6fdf6a	0.058562674
230	0x3d9db0d5	0.07699744
231	0x3d2cec06	0.042217277
232	0x3c8da2e4	0.017289586
233	0x3b6fb929	0.003657887
234	0x3dbbf98d	0.091784574
235	0x3db0585b	0.086106025
236	0x3daf12b0	0.08548486
237	0xbc8fc611	-0.0175505
238	0x3d6c4f31	0.05769271
239	0x3d952257	0.072819404
240	0x3d07a885	0.033119697
241	0x3cb6b979	0.022305237
242	0xbcc2a3a4	-0.02375967
243	0x3c22e849	0.009943076
244	0xbd810c0b	-0.06301125
245	0x3d2c5056	0.0420688
246	0xbc477d37	-0.01217585
247	0x3d16d1dc	0.03682123
248	0xbcd78f02	-0.026313309
249	0xbca36698	-0.019946381
250	0x3dcb16a6	0.09916429
251	0x3db611fd	0.0889015
252	0xbcb6420e	-0.022248294
253	0x3d9ef053	0.07760682
254	0x3cf2ffdd	0.02966302
255	0x3d8609a7	0.0654481

bias f4 [24]
0	0x3da2b45b	0.07944556
1	0x3bf1b993	0.0073768585
2	0x3d28870d	0.04114442
3	0xbd35488e	-0.044258647
4	0xbc79ac2a	-0.015238801
5	0x3c22b2f2	0.009930359
6	0xbc12477c	-0.008928176
7	0xbc821c08	-0.015882507
8	0xbccf0e8f	-0.025275497
9	0xbd09a8f9	-0.03360841
10	0x3d8f04c0	0.06983328
11	0xbd52a5ae	-0.051427536
12	0xbc8cb05c	-0.017173938
13	0xbbfd8be1	-0.007737622
14	0x3d8b3ec4	0.06799081
15	0x3dac28b4	0.08406201
16	0x3d79079e	0.06079828
17	0x3da7d061	0.08194042
18	0x3c0fb22e	0.008770509
19	0xbc539675	-0.01291429
20	0xbd65ad43	-0.05607344
21	0xbd2901af	-0.04126137
22	0x3cf0a1e6	0.029374074
23	0x3d22bae9	0.039729033

weight f4 [48, 24, 4, 4]
0	0x3d58b04a	0.052902497
1	0x3cb67cd5	0.022276321
2	0xbcf6d59e	-0.030131157
3	0xba7c35be	-0.00096210453
4	0x3d87794e	0.06614934
5	0x3d217ff5	0.03942867
6	0xbd3a85d0	-0.04553777
7	0xba2bc106	-0.0006551895
8	0xbcdcfe17	-0.026976628
9	0x3d5297b4	0.051414207
10	0x3becb048	0.007223163
11	0x3d74351c	0.05962096
12	0x3a419791	0.0007384951
13	0x3d26cb22	0.040721066
14	0x3d4ac49d	0.04950391
15	0x3d843f20	0.06457353
16	0xbccbcade	-0.024877008
17	0xbcc8b643	-0.024500972
18	0x3d06b0c3	0.032883417
19	0x3c097c53	0.008391458
20	0x3d2c8517	0.042119112
21	0x3d3b29f5	0.04569431
22	0x3d759bb5	0.059962947
23	0x3d16e0f4	0.036835626
24	0x3d2375fd	0.039907444
25	0x3c42bca4	0.011885796
26	0x3d6ada69	0.0573372
27	0x3d1d39a8	0.038385063
28	0xbcec5405	-0.028848657
29	0x3d5b25a4	0.053502694
30	0x3d43bcba	0.047787406
31	0xbc88847c	-0.016664736
32	0xbd06789d	-0.03282987
33	0xbd0e7e07	-0.034788158
34	0x3cb0b92a	0.021572668
35	0xbc9d06e4	-0.019168325
36	0x3d1d5dd8	0.038419574
37	0x3d416e3f	0.04722428
38	0x3d4232a7	0.047411587
39	0xbae4e17c	-0.0017462219
40	0x3cf6e0e7	0.030136539
41	0xbc5f18ce	-0.013616754
42	0x3d6540c4	0.05596997
43	0x3c81e915	0.015858212
44	0x3cec63b0	0.028856128
45	0x3cea2cd5	0.02858583
46	0xbce0b894	-0.027431764
47	0xbc0ad246	-0.008472985
48	0xbc308f9c	-0.010776427
49	0xbc67eecf	-0.0141560575
50	0x3d0ab886	0.03386738
51	0x3d125ed7	0.035734978
52	0xbbff2d95	-0.007787416
53	0xbc56819c	-0.013092425
54	0xbcbcff01	-0.023070814
55	0x3d4103f9	0.04712293
56	0x3d822932	0.06355514
57	0x3d26f7dc	0.04076372
58	0x3d73a9e2	0.059488185
59	0x3cefa7f3	0.02925489
60	0x3d002e6c	0.03129427
61	0xbcf6cb94	-0.03012637
62	0x3d30d6b7	0.043173518
63	0x3c625fe0	0.013816804
64	0x3c004905	0.007829909
65	0x3d1ffd89	0.03906015
66	0x3d108c1c	0.03528987
67	0x3a05e945	0.0005108307
68	0x3c426c81	0.01186669
69	0x3ce391f7	0.027779562
70	0x3bdf1b21	0.006808654
71	0xbd86ad9d	-0.06576083
72	0xbc9602d0	-0.018311888
73	0x3d36f58a	0.044667758
74	0x3d0b9486	0.03407719
75	0xbd5e2a85	-0.05423977
76	0xbba8ef3a	-0.005155471
77	0x3d825ab1	0.06364954
78	0xbd6bb7b3	-0.057548236
79	0x39d2fbce	0.0004024193
80	0xbd015e2a	-0.031583942
81	0xbd228579	-0.03967807
82	0xbc8a98b1	-0.016918512
83	0x3d5eaf32	0.054366298
84	0xbd0f413a	-0.034974314
85	0xbc97a490	-0.018511087
86	0x3d898ea9	0.067166634
87	0xbcda80e1	-0.026672782
88	0x3bd75a66	0.0065720556
89	0x3a044a8a	0.00050465076
90	0x3d84125b	0.064488135
91	0x3c33b5ce	0.010968639
92	0x3d597964	0.053094283
93	0x3bfa100c	0.0076313075
94	0xbbef3186	-0.007299605
95	0x3d45d9b4	0.04830332
96	0x3c882353	0.016618406
97	0x3c4d5d82	0.012534501
98	0x3c8a4f3f	0.01688349
99	0x3c51fc49	0.012816497
100	0x3ca5976e	0.020213809
101	0x3d8d7d36	0.06908648
102	0x3d0054aa	0.031330742
103	0xbc872e66	-0.016501617
104	0x3d85b3a7	0.065284066
105	0xbc2faf41	-0.010722936
106	0x3cfa8736	0.030582052
107	0x3c1f917b	0.009739275
108	0x3bc2e5f0	0.005947821
109	0x3d70159c	0.05861436
110	0xbc0db0b8	-0.00864809
111	0x3d23f8bd	0.040032137
112	0x3d5ab2ce	0.053393178
113	0x3d3c7161	0.046006564
114	0xbcc47ee2	-0.023986284
115	0x3d18dbcd	0.037318993
116	0x3cff771d	0.031184727
117	0xbd09c84f	-0.033638295
118	0x3c9bf611	0.019038232
119	0x3b8ed5cf	0.004358984
120	0x3cffe17c	0.031235449
121	0x3c3c00b3	0.011474776
122	0xbcbb8fff	-0.022895811
123	0x3d745364	0.05964984
124	0x3c988af3	0.018620944
125	0xbba7ccf4	-0.005120868
126	0x3bf1cffc	0.00737953
127	0x3bac577c	0.0052594524
128	0x3b338edd	0.0027398386
129	0x3d3efcf0	0.04662794
130	0xbd0ae547	-0.033910062
131	0x3d12d71d	0.03584968
132	0xbd24d535	-0.040242393
133	0x3cb2cdfb	0.021826735
134	0x3d5a612c	0.053315327
135	0xbbc33ed7	-0.005958419
136	0xbcf70643	-0.030154353
137	0xbb66b2bb	-0.0035201747
138	0xbcbf2d5a	-0.023337055
139	0x3a335100	0.0006840378
140	0xbce1b25d	-0.02755087
141	0x3d0d8403	0.034549724
142	0x3c598fc2	0.013278903
143	0xbb169ab3	-0.0022980392
144	0x3d4dac1c	0.050212964
145	0xbd242530	-0.040074527
146	0x3d480c46	0.04883983
147	0xbb805248	-0.0039160587
148	0x3cc914bd	0.024546022
149	0xbd044bb5	-0.032298762
150	0x3b70ba91	0.0036732296
151	0x3d35c9d1	0.04438192
152	0x3cd209ce	0.02563944
153	0x3d7f8e4a	0.062391557
154	0xbc511ac0	-0.012762725
155	0x3d8dc5a3	0.06922462
156	0x3d3c17c0	0.045921087
157	0x3d3d7102	0.04625035
158	0x3ccdbffe	0.025115963
159	0xbc9efbaf	-0.019407121
160	0x3d17c6e2	0.037054904
161	0x3d5876e1	0.052847747
162	0xbb8694a6	-0.0041070757
163	0x3cf9067c	0.0303986
164	0x3c929634	0.017893888
165	0x3d548b82	0.051890858
166	0x3bf5f127	0.0075055542
167	0x3d278104	0.040894523
168	0xbd2ce82f	-0.042213615
169	0xbd26a402	-0.040683754
170	0x3c5e82b3	0.013580966
171	0xbd1784dd	-0.036991943
172	0xbc8ff2f3	-0.017571902
173	0x3cfae2f0	0.03062579
174	0x3d27b241	0.04094148
175	0x3bc62226	0.0060465513
176	0x3c2ed3b4	0.010670591
177	0xbc667705	-0.014066462
178	0x3d08c4ba	0.033390738
179	0x3cd35c72	0.025800917
180	0xba937901	-0.0011251272
181	0x3cb35629	0.02189167
182	0xbb21f7c7	-0.0024714337
183	0xbc5a9afc	-0.013342615
184	0xbd109087	-0.035294082
185	0xbcdbf449	-0.026849883
186	0x3d0eb5c0	0.0348413
187	0xbd23c209	-0.03997997
188	0xbc109412	-0.008824365
189	0x3ce45821	0.027874054
190	0xba6a5568	-0.0008939118
191	0x3cd1100b	0.025520345
192	0xbc35200a	-0.011055002
193	0xbd384b7a	-0.044993855
194	0xbba6f186	-0.00509471
195	0x3c868a61	0.016423406
196	0x3d3734cc	0.044728085
197	0x3ce8b062	0.028404418
198	0x3ca09aa8	0.019604996
199	0x3d26af7d	0.040694702
200	0x3c4af4e6	0.01238749
201	0xbc1b5c3a	-0.009482438
202	0xbd1f7a69	-0.0389351
203	0x3c67552a	0.014119426
204	0x3d4a0ac9	0.04932669
205	0x3c1587af	0.009126588
206	0x3d111979	0.035424683
207	0xbbbb9dbc	-0.0057255905
208	0xbd0e616c	-0.034760877
209	0x3c8ed24d	0.017434264
210	0x3d2cdb92	0.042201586
211	0x39e47e48	0.00043581636
212	0xbc528f07	-0.012851483
213	0x3d89b491	0.067238934
214	0x3d9396f9	0.0720653
215	0xbcce7f8c	-0.025207303
216	0x3d2ec5c9	0.04266909
217	0xbc8e44be	-0.017366763
218	0x3c33cf58	0.010974728
219	0x3cb2c536	0.021822553
220	0x39ec7a74	0.00045104662
221	0x3a125ea0	0.0005583558
222	0x3d5d7fed	0.054077078
223	0x3ca2e9aa	0.01988681
224	0xbc38ab3a	-0.011271292
225	0x3ca49c54	0.020094074
226	0x3c9a6561	0.01884717
227	0xbbc5e8d2	-0.0060397172
228	0xbc9186c4	-0.017764457
229	0x3d43dcc7	0.04781797
230	0xbd5ef21e	-0.05443012
231	0x3d190d65	0.03736629
232	0xb9800511	-0.00024417837
233	0x3d904a4f	0.07045423
234	0x3d314b10	0.043284476
235	0x3d1e2c59	0.038616512
236	0x3d46c7c5	0.04853036
237	0x3d60fd3a	0.054928996
238	0x3d8bf033	0.06832924
239	0x3d0bf746	0.034171365
240	0xbca45bf5	-0.02006338
241	0x3d264a13	0.040597986
242	0xbc82ce2e	-0.015967455
243	0xbccc271c	-0.024920993
244	0xbc242d7f	-0.010020613
245	0xbc7a7475	-0.015286555
246	0x3acd9b12	0.0015686473
247	0x3d3861ad	0.045015026
248	0x3d1307ed	0.03589623
249	0x3b8da975	0.0043231794
250	0xbce46d5e	-0.027884182
251	0xbd1486f8	-0.03626153
252	0x3c68cd5c	0.014209118
253	0x3c500e3f	0.012698709
254	0x3c40ba4a	0.011763165
255	0x3d0d7679	0.034536812

bias f4 [48]
0	0x3d7d7d2b	0.061886948
1	0xbc501974	-0.012701381
2	0x3d1f5d6f	0.038907465
3	0x3c89101c	0.016731314
4	0x3d5162fb	0.051119786
5	0x3be73f19	0.0070570824
6	0x3cdd21c8	0.026993647
7	0x3d48b670	0.04900211
8	0x3d0e366e	0.034719877
9	0xbcd60528	-0.026125506
10	0xbd18e36c	-0.03732626
11	0x3cc9368c	0.024562143
12	0x3d659525	0.05605044
13	0x3aac0bac	0.0013126037
14	0xbc64df4b	-0.013969253
15	0x3d0590ed	0.032608915
16	0xbcc89c04	-0.024488457
17	0x3d183ae2	0.03716553
18	0xbc0e3216	-0.008678934
19	0x3c0945d9	0.008378469
20	0x3d6b2ef8	0.05741784
21	0x3d0f8bf1	0.035045568
22	0x3d3700b3	0.0446784
23	0x3cab1de2	0.020888273
24	0xbd39911e	-0.04530441
25	0xbb79a570	-0.0038092993
26	0x3cf01ac1	0.029309632
27	0x3d049ec5	0.032377977
28	0xbc9a305d	-0.01882189
29	0x3cb74dc3	0.022375947
30	0x3caf8d06	0.02142955
31	0x3d22cf03	0.039748203
32	0xbcf68bee	-0.03009602
33	0x3beb9752	0.0071896696
34	0x3d4065a7	0.046971943
35	0x3d59796e	0.05309432
36	0x3cef415e	0.029205974
37	0x3cc9e748	0.024646416
38	0xbb075e98	-0.0020655748
39	0x3cf28b0b	0.029607316
40	0x3d6c5e99	0.057707403
41	0x3c4273a6	0.011868393
42	0xbcd0dfad	-0.025497282
43	0xbd0ba643	-0.034094106
44	0x3d4fe1f1	0.050752584
45	0xbba3c68d	-0.0049980343
46	0x3d64e864	0.055885687
47	0x3cb35291	0.021889957

weight f4 [48, 24, 4, 4]
0	0x3d351c25	0.044216294
1	0x3cc5873b	0.024112334
2	0x3d176bc1	0.036967997
3	0x3d14453d	0.036198843
4	0xbcfae868	-0.030628398
5	0x3ca8a979	0.020588623
6	0x3ca603e2	0.020265523
7	0x3c7f15df	0.015569179
8	0x3d067a68	0.03283158
9	0x3ccaf354	0.024774231
10	0x3b7ba48e	0.0038397643
11	0x3cc79d39	0.024366962
12	0xbd34e60f	-0.044164713
13	0xbc8e8d14	-0.017401256
14	0xbd2a1d0e	-0.041531615
15	0xbd1b4e50	-0.03791648
16	0xbcf50d76	-0.029913645
17	0x3d584239	0.05279753
18	0x3d64ee2d	0.055891205
19	0x3d49a83a	0.0492327
20	0x3b93f826	0.0045156656
21	0x3d66f2b5	0.056383807
22	0x3c6bded4	0.014396388
23	0x3d8413f3	0.064491175
24	0x3c246768	0.01003442
25	0x3d29c1e4	0.041444674
26	0x3d2f5879	0.042808983
27	0xbcdcef0b	-0.026969453
28	0x3cb4b87c	0.022060625
29	0xbd1ce5df	-0.03830516
30	0x3c8a92c0	0.016915679
31	0xbcc4655f	-0.023974119
32	0xbcea045a	-0.028566528
33	0x3d676613	0.05649383
34	0x3d556cac	0.05210559
35	0xbb382703	-0.0028099425
36	0xbc1deca5	-0.00963894
37	0xbc9e3c8b	-0.019315979
38	0x3d2b4b40	0.04181981
39	0x3d6535e5	0.0559596
40	0xbc748431	-0.014924095
41	0xbce79dfe	-0.028273579
42	0x3d80967d	0.06278703
43	0x3b3be64e	0.0028671208
44	0xbbe49e08	-0.0069768466
45	0x3cde98a6	0.027172398
46	0xbb923750	-0.00446216
47	0xbce56fe1	-0.02800745
48	0xbb7326e0	-0.0037102029
49	0xbd106c5c	-0.03525959
50	0x3c906b57	0.017629309
51	0x3d29e18f	0.041474875
52	0xbd0f3481	-0.03496218
53	0x3b96ae1b	0.0045983917
54	0x3cfad74d	0.030620242
55	0x3d60fd77	0.054929223
56	0xbacb70db	-0.0015521304
57	0xbc85b4da	-0.016321588
58	0xbb99d680	-0.00469476
59	0x3cd505da	0.026003767
60	0x3d29b77e	0.041434757
61	0xbccd5109	-0.025063055
62	0x3cefd68d	0.02927711
63	0xbd0cb60c	-0.0343533
64	0x3d1ee720	0.038794637
65	0x3b93de9f	0.0045126225
66	0xbacf0844	-0.001579531
67	0xbd82bc08	-0.0638352
68	0xbcd8ecf6	-0.02648018
69	0x3bd77699	0.0065754172
70	0xbc8812ea	-0.016610581
71	0x3d2fab93	0.042888235
72	0xbd452ee3	-0.048140418
73	0x3d465435	0.04842015
74	0x3d10f75e	0.035392158
75	0xbd361414	-0.04445274
76	0xbd3abed4	-0.045592144
77	0x3c8d2936	0.017231565
78	0xbd2ce2ba	-0.04220841
79	0x3ce6d3eb	0.028177222
80	0xbd3dfa70	-0.046381414
81	0xbcfbb0bf	-0.030723928
82	0xbc54be6b	-0.012984852
83	0xbc6235f0	-0.013806805
84	0xbd48efed	-0.049056936
85	0x3d551846	0.052025102
86	0x3d4ec1fc	0.050477967
87	0xbc9b15d7	-0.018931312
88	0xbd1cfde8	-0.03832808
89	0x3c266eb6	0.0101582315
90	0x3bc84199	0.0061113355
91	0xbc50e588	-0.012750037
92	0xbc5196e8	-0.0127923265
93	0x3ca3b40f	0.01998332
94	0xbaf3bf07	-0.0018596359
95	0x3d356c56	0.04429277
96	0xbbb90eb2	-0.005647504
97	0x3cbeb360	0.023278892
98	0xbd46a4fd	-0.04849719
99	0x3bc6d2df	0.0060676183
100	0x3b041fd3	0.002016057
101	0x3d7ab231	0.061205093
102	0xbd1408b0	-0.036141098
103	0xbcfbbb70	-0.030729026
104	0x3d4476ee	0.047964983
105	0x3bbb33b8	0.0057129525
106	0x3d370aab	0.04468791
107	0xbc5a839b	-0.013337041
108	0x3d366bce	0.044536404
109	0x3d5e8d94	0.05433424
110	0xbba4f426	-0.0050339876
111	0x3d079565	0.033101458
112	0x3cbce8c5	0.023060212
113	0xbd1d5ee6	-0.03842058
114	0x3cd03c7f	0.025419472
115	0xbc16c933	-0.009203243
116	0xbc93b852	-0.018032227
117	0x3cd10382	0.025514368
118	0x3c1427a1	0.009042651
119	0x3d1f1b47	0.038844373
120	0x3d271e36	0.040800296
121	0xbba79c05	-0.0051150345
122	0x3ca0ddba	0.019636977
123	0x3d6a0efc	0.057143196
124	0xbb906841	-0.0044069593
125	0xbcd0e947	-0.02550186
126	0x3aaf8d8c	0.0013393625
127	0xbd303469	-0.043018732
128	0x3cbfc0aa	0.0234073
129	0x3cf92724	0.030414172
130	0x3d1fd762	0.039023764
131	0xbc2c31bc	-0.0105099045
132	0x3bb6406a	0.005561878
133	0x3d559712	0.052146025
134	0xbade5c0a	-0.0016964686
135	0xbce779b3	-0.028256273
136	0x3d2914da	0.04127965
137	0x3d0696d3	0.03285868
138	0x3ba8ec3b	0.005155114
139	0xbc83c3c8	-0.016084567
140	0x3c1f6e6e	0.009730918
141	0xbd49dccf	-0.049282845
142	0x3d6a3cbc	0.057186827
143	0x3d383176	0.044969045
144	0x3d02244c	0.031772897
145	0xbcf7b139	-0.030235874
146	0x3c331208	0.010929592
147	0xbd0e9984	-0.034814373
148	0xbb8c297f	-0.0042774077
149	0x3ba82e85	0.0051324987
150	0xbd419e7f	-0.047270294
151	0xbc631913	-0.013860959
152	0x3d2e1c59	0.042507503
153	0x3c469e4b	0.012122701
154	0xbd012ef4	-0.03153892
155	0xbc65ff27	-0.014037884
156	0x3d274f23	0.040846955
157	0xbc1555ad	-0.009114665
158	0x3d115e72	0.03549046
159	0x3d4601bd	0.0483415
160	0x3d1c6bf4	0.03818889
161	0x3d3de066	0.04635658
162	0x3d29d4e3	0.04146279
163	0x3cd30aa1	0.025761904
164	0x3d21ab2e	0.03946989
165	0x3ce07466	0.027399253
166	0x3d7e8fc5	0.062148828
167	0x3bcc4f32	0.0062350268
168	0x3b39d965	0.0028358337
169	0xbced07cc	-0.028934382
170	0x3c4dadb0	0.012553617
171	0x3d2a3706	0.04155638
172	0x3c82578c	0.015910886
173	0x3bec7aab	0.0072167716
174	0x3cfd96a6	0.030955624
175	0xbd2b25e9	-0.0417842
176	0xbb967b43	-0.0045923307
177	0x3ca69b14	0.020337619
178	0x3c09908c	0.008396279
179	0x3d124354	0.03570874
180	0xbc3b603e	-0.01143652
181	0x3d8219f7	0.06352609
182	0x3d4ffea1	0.050779942
183	0xbbcecc8f	-0.0063110064
184	0x3d2e2aa3	0.04252113
185	0x3d337053	0.043808293
186	0xbcea96f6	-0.028636437
187	0x3c133e78	0.008987062
188	0xbd0eea45	-0.034891386
189	0x3d529e74	0.051420644
190	0xbd1f4d7a	-0.038892247
191	0x3bfad045	0.007654222
192	0x3d2935d2	0.041311093
193	0x3c1aa87e	0.009439586
194	0xbc053d61	-0.00813231
195	0xbbfe2adb	-0.0077565736
196	0x3ac02dfd	0.0014662143
197	0xbb7f3a37	-0.003894461
198	0xbceab36e	-0.028650012
199	0xbc8a3a91	-0.01687363
200	0xbb3ce770	-0.002882447
201	0xbbfdf333	-0.007749939
202	0xbbf92eda	-0.007604462
203	0x3d45ef65	0.048324008
204	0x3c822d40	0.015890718
205	0xbc554c16	-0.013018629
206	0x3d1e95d2	0.0387171
207	0xbc8fa29d	-0.017533595
208	0x3c3f9789	0.011693844
209	0x3baacd53	0.005212465
210	0xbce7c480	-0.02829194
211	0x3cb74ed7	0.022376461
212	0x3c5bbb22	0.013411315
213	0x3cce598f	0.02518919
214	0xbc78a1ad	-0.015175265
215	0xbd01eb2f	-0.03171843
216	0xbcc91a0d	-0.024548555
217	0x3d007609	0.031362567
218	0x3d2abcad	0.04168384
219	0x3d407bb0	0.046992958
220	0x3d246be0	0.04014194
221	0xbce9f1a5	-0.028557608
222	0x3cd99c73	0.026563859
223	0x3c8a011b	0.01684623
224	0x3c7477ff	0.014921187
225	0x3cc69c44	0.024244435
226	0x3d0b8926	0.03406634
227	0xb92fc7b7	-0.000167637
228	0xbc5150a2	-0.012775572
229	0x3d366a21	0.044534806
230	0xbc0a1864	-0.008428667
231	0xbbfd8007	-0.0077362093
232	0xbd0b18da	-0.033959247
233	0xbd02a827	-0.031898644
234	0xbc123a11	-0.008924977
235	0xbc978cbd	-0.018499726
236	0x3d484d24	0.048901692
237	0xbd485e2f	-0.048917945
238	0x3c2500d4	0.010070998
239	0x3caaeb7d	0.020864243
240	0xbd2368a7	-0.039894726
241	0x3c99a8e2	0.018757287
242	0xbc8e19cc	-0.017346285
243	0x3cca7532	0.024714086
244	0xbc58825a	-0.013214672
245	0x3d642f1a	0.055708982
246	0x3d214164	0.039369002
247	0x3bbcfa5d	0.0057671503
248	0x3d282e57	0.041059818
249	0x3cbe087d	0.023197407
250	0xbcf965e7	-0.030444099
251	0xbc97190a	-0.018444557
252	0x3d366707	0.04453185
253	0xbca6343f	-0.020288585
254	0xbc9f046f	-0.019411294
255	0xbcdbc607	-0.026827825

bias f4 [24]
0	0x3cbed758	0.023296043
1	0xbba79f4c	-0.005115425
2	0x3c8eaa26	0.017415117
3	0xbcf68d6f	-0.030096738
4	0xbd39b84a	-0.045341767
5	0x3cc0c85d	0.02353304
6	0xbc92c796	-0.017917436
7	0x3c3ec167	0.01164279
8	0x3d245d78	0.0401282
9	0xbc1a22d2	-0.009407716
10	0xbce133f4	-0.027490593
11	0xbab3bbb7	-0.001371256
12	0xbbbcd3b7	-0.005762543
13	0x3d258869	0.040413294
14	0xbd0a0640	-0.033697367
15	0x3d4da259	0.050203655
16	0x3ce2dec2	0.02769411
17	0xbb712cd7	-0.0036800408
18	0xbaa7c0df	-0.0012798569
19	0xbcfae7f0	-0.030628175
20	0xbcdc1f98	-0.026870534
21	0xbc2e1566	-0.010625219
22	0x3d099125	0.033585686
23	0xbcb77d9a	-0.022398759

weight f4 [24, 12, 4, 4]
0	0x3d333ae5	0.043757338
1	0x3ca9c8c7	0.02072562
2	0xbc09c7d2	-0.008409457
3	0x3cec63bb	0.028856149
4	0x3b51562f	0.0031942239
5	0x3b1ceb6b	0.002394403
6	0x3d81878c	0.06324682
7	0xbc5d2334	-0.013497163
8	0xbc79a3a8	-0.015236773
9	0x3cf76f29	0.030204372
10	0x3d03367b	0.03203438
11	0x3c968ad0	0.018376738
12	0x3d65d3e1	0.056110267
13	0x3d575278	0.052568883
14	0x3d09a634	0.03360577
15	0x3d2c7bd5	0.042110283
16	0xbd96f97b	-0.073718034
17	0x3d056f79	0.03257701
18	0x3cc54919	0.024082707
19	0x3d65dbdd	0.05611788
20	0xbce9130e	-0.028451469
21	0x3d1049b4	0.03522654
22	0xbcd5f15b	-0.026116064
23	0xbc9aa194	-0.018875875
24	0xbd10c7ad	-0.035346676
25	0x3ca34ed3	0.019935047
26	0xbd9fba40	-0.07799196
27	0xbd92bfa1	-0.071654566
28	0xbd1609ff	-0.036630627
29	0xbd636d66	-0.055524252
30	0xbc87f656	-0.016596954
31	0xbd2dd8e7	-0.042443182
32	0xbdb07198	-0.08615416
33	0x3a218bb4	0.000616248
34	0x3c7532bf	0.014965712
35	0xbbd967c3	-0.006634684
36	0xbd9adc3f	-0.0756154
37	0xbd95464d	-0.072887994
38	0xbdbf9616	-0.093547985
39	0xbbc72aa9	-0.0060780835
40	0xbce39273	-0.027779793
41	0xbc8de9fb	-0.017323485
42	0xbcba609e	-0.022751149
43	0x3cce84c4	0.025209792
44	0xbce37b0f	-0.02776864
45	0xbda3d5a6	-0.079997346
46	0xbd924ae7	-0.07143193
47	0xbd8858bc	-0.0665755
48	0x3cddd800	0.027080536
49	0x3bd2543a	0.006418732
50	0x3cfa315a	0.03054111
51	0x3c53a419	0.012917542
52	0x3d87a801	0.06623841
53	0x3dbd3b55	0.09239832
54	0x3d8d0eaa	0.068875626
55	0x3b8bf37c	0.004270969
56	0x3d92615c	0.07147476
57	0x3d58cb9a	0.052928545
58	0x3d0c8b9f	0.03431284
59	0xbd101dc9	-0.035184655
60	0x3cfffea7	0.031249357
61	0x3d5b285f	0.053505298
62	0x3da33056	0.07968204
63	0x3d7b4507	0.061345126
64	0x3d013d24	0.03155245
65	0xbd2477ee	-0.040153436
66	0x3d683ecb	0.05670051
67	0xbd625b47	-0.05526283
68	0x3d3e1ef4	0.046416238
69	0x3d8463a4	0.064643174
70	0xbcef0fc8	-0.02918233
71	0x3d55475c	0.052070007
72	0xbcb9ba86	-0.02267195
73	0xbd87a841	-0.06623889
74	0xbd67e9bb	-0.056619387
75	0x3b668848	0.0035176445
76	0xbd86c177	-0.06579869
77	0xbd4b1d05	-0.049588222
78	0xbd0c99aa	-0.034326233
79	0xbd26a544	-0.040684953
80	0x3d46ded7	0.04855236
81	0xbc7e5c71	-0.015524969
82	0x3da19ea3	0.07891586
83	0x3da18947	0.07887512
84	0x3d62585e	0.055260055
85	0x3c32a8d2	0.010904508
86	0x3d2e7849	0.04259518
87	0xbd6b243f	-0.057407614
88	0x3d8a173f	0.06742715
89	0x3d9d7764	0.076887876
90	0x3da6f06e	0.08151327
91	0x3d614d40	0.055005312
92	0x3d8f800c	0.07006845
93	0xbcf1bad7	-0.029508037
94	0x3c5a34b3	0.013318229
95	0x3cfab301	0.030602934
96	0xbd760f4c	-0.060073182
97	0xbc21d7d3	-0.009878117
98	0x3d821fb6	0.06353705
99	0x3afd2cf1	0.0019315762
100	0x3c4a8218	0.012360118
101	0x3b9cd83e	0.0047865203
102	0xbc04bc35	-0.008101513
103	0xbcee08fb	-0.029057017
104	0x3d7bf98e	0.06151729
105	0xbc6f1d17	-0.014594338
106	0xbd9a50ee	-0.07534967
107	0x3d217f3d	0.039427985
108	0x3d9841d8	0.07434434
109	0x3c8af4f2	0.016962502
110	0xbba44e73	-0.0050142347
111	0x3d12184e	0.03566771
112	0x3cd8a94a	0.02644791
113	0xbd4188c7	-0.04724958
114	0x3d781aa5	0.060572285
115	0xbc852742	-0.016254071
116	0x3db05f9c	0.08611986
117	0x3d0ad3f7	0.03389355
118	0x3be36778	0.0069398247
119	0x3c387d94	0.011260409
120	0x3cc32391	0.02382067
121	0x3d5abee3	0.0534047
122	0xbca7a23a	-0.020463098
123	0x3ca2a0c2	0.019852046
124	0x3d3333c1	0.04375053
125	0x3b91ce75	0.0044496604
126	0xbcffea1a	-0.031239558
127	0x3c9e16b8	0.019297943
128	0xbccb2ede	-0.024802621
129	0x3d72c888	0.059273273
130	0xbd4d6e2b	-0.050153892
131	0x3c0fb5db	0.008771385
132	0xbd430cd0	-0.04761964
133	0xbcbcb69a	-0.02303629
134	0x3d03cbe7	0.03217688
135	0xbcae8aa3	-0.021306342
136	0x3da41b5a	0.080130294
137	0xbc88ef43	-0.016715651
138	0x3d5219d9	0.05129418
139	0x3c4322d8	0.011910163
140	0x3c7d862e	0.015473885
141	0xbbff98ae	-0.0078001833
142	0x3d27ddbe	0.040982954
143	0xbc8f56c5	-0.01749743
144	0xbcbc63af	-0.022996752
145	0xbc867a9e	-0.01641589
146	0xbd5d4c5e	-0.054027908
147	0xbd83ca0b	-0.06435021
148	0xbda107df	-0.078628294
149	0xbd227577	-0.039662804
150	0xbc6f8c44	-0.014620844
151	0x3d2dad10	0.042401373
152	0xbc5005cd	-0.0126966955
153	0x3c856a6b	0.016286096
154	0x3c806a8c	0.015675806
155	0x3d12826a	0.035768904
156	0x3cc1f407	0.023675932
157	0xbd40be10	-0.047056258
158	0x3d04c8ed	0.03241818
159	0x3d5d346a	0.054005064
160	0x3cf0dab1	0.029401155
161	0x3c007584	0.007840518
162	0x3cc105f8	0.023562416
163	0x3cc77413	0.02434734
164	0x3d88d521	0.06681276
165	0xbd0b3a16	-0.033990942
166	0x3d7fb832	0.06243152
167	0xbd58046f	-0.052738603
168	0x3d0b7ab2	0.03405256
169	0x3d578ead	0.0526263
170	0x3c14b7f0	0.009077057
171	0x3c8385e0	0.016055048
172	0x3d886ac9	0.06660993
173	0xbd3a8376	-0.045535527
174	0x3c0e6a0a	0.008692274
175	0x3ceebdd0	0.029143244
176	0x3d7eb018	0.062179655
177	0xbc319541	-0.010838808
178	0x3d20f1fc	0.039293274
179	0x3d19b083	0.03752185
180	0x3cd759e2	0.026287977
181	0xbd81a748	-0.063307345
182	0x3cbabcfb	0.022795191
183	0xbc85492c	-0.016270243
184	0xbc63db87	-0.01390732
185	0xbb8a8251	-0.0042269607
186	0xbc39f824	-0.011350665
187	0x3ca4802d	0.02008065
188	0x3d391d1f	0.045193788
189	0x3c956438	0.018236265
190	0x3d8d710b	0.06906327
191	0x3d3493ff	0.044086453
192	0x3d799654	0.06093438
193	0x3ccfbbb4	0.025358059
194	0x3d380db8	0.04493496
195	0xbcf53e0f	-0.029936818
196	0xbd3b0aeb	-0.04566471
197	0x3cf87f76	0.030334216
198	0x3d7c9b0a	0.061671294
199	0x3d439d69	0.04775754
200	0x3d527eb6	0.051390372
201	0x3c9911a9	0.018685179
202	0x3d47c8b0	0.048775375
203	0xbc9cd557	-0.019144697
204	0x3d745379	0.05964992
205	0xbc24056e	-0.01001106
206	0x3d614a55	0.05500253
207	0x3cb9fcf6	0.022703629
208	0xbcbb9b7b	-0.022901287
209	0x3c287123	0.01028088
210	0x3d3df619	0.046377275
211	0x3c291e35	0.010322143
212	0xbc20d227	-0.009815729
213	0x3c803b25	0.015653202
214	0x3b02cb30	0.0019957535
215	0xbd64720f	-0.055772837
216	0xbd90b01a	-0.07064839
217	0xbcba16ce	-0.022715952
218	0x3d460dd1	0.04835302
219	0xbd8c916d	-0.06863675
220	0xbd9f8e21	-0.07790781
221	0x3d191fc0	0.037383795
222	0x3cbbb086	0.022911321
223	0x3d27f4a6	0.0410048
224	0xbb2bb898	-0.0026202556
225	0xbd091bdc	-0.033473834
226	0xbce196f8	-0.027537808
227	0xbd720096	-0.05908259
228	0x3cd7b14c	0.026329659
229	0x3d2da5cb	0.04239444
230	0xbdb39931	-0.08769453
231	0x3cbced57	0.023062391
232	0xbdb4d0a1	-0.08828855
233	0xbd7d2900	-0.06180668
234	0x3cec4e71	0.028845998
235	0xbd632ac6	-0.055460714
236	0xbd47e7aa	-0.048804916
237	0xbd918bcb	-0.071067415
238	0xbd691c45	-0.056911726
239	0x3c9e3088	0.01931025
240	0x3ca51dc5	0.020155797
241	0xbcb915aa	-0.022593338
242	0xbd066cad	-0.032818485
243	0x3d2ae54d	0.041722585
244	0x3daecfe1	0.085357435
245	0x3dc33845	0.09532217
246	0x3dbf4637	0.09339564
247	0x3d715a6a	0.058924116
248	0x3d03c1db	0.032167297
249	0xbcf164aa	-0.029466946
250	0xbd30944a	-0.04311017
251	0x3d167e54	0.03674157
252	0x3d7de209	0.061983142
253	0xbc25692a	-0.010095874
254	0x3da3f3e9	0.080055065
255	0x3c37f6f3	0.011228311

bias f4 [12]
0	0x3d397e92	0.045286722
1	0x3b94febb	0.004546968
2	0x3d84d4fa	0.064859346
3	0x3d503c36	0.05083867
4	0x3d4bb60f	0.04973417
5	0x3ccc23df	0.024919448
6	0xbd20f6ed	-0.039297987
7	0xbd18f762	-0.037345298
8	0x3c71eed6	0.014766416
9	0x3d86545b	0.06559058
10	0x3d21b998	0.039483637
11	0xbcdb6f9b	-0.026786616

weight f4 [12, 3, 4, 4]
0	0x3dab804a	0.083740786
1	0x3e0c3a86	0.136942
2	0xbdf62b45	-0.12019972
3	0x3d9cc58b	0.07654866
4	0xbcd29b51	-0.025708826
5	0xbda78453	-0.08179536
6	0x3da477d7	0.0803067
7	0x3ca27fb3	0.019836282
8	0x3d2ddd79	0.04244754
9	0x3dc94f5d	0.098295905
10	0xbc742249	-0.014900752
11	0xbd75f4ef	-0.06004804
12	0xbd96c4c0	-0.07361746
13	0xbd9c8da9	-0.07644207
14	0x3e0ddbd3	0.13853388
15	0x3cc37445	0.023859153
16	0xbdd239bc	-0.10264918
17	0x3d41c3ff	0.047306057
18	0xbd41d95e	-0.047326438
19	0xbda2c03f	-0.07946824
20	0xbd50b734	-0.050955966
21	0x3e05fb06	0.13084039
22	0xbdd95f12	-0.10613836
23	0x3dfa7d39	0.122309156
24	0x3c7af538	0.015317254
25	0x3dec6893	0.115433834
26	0xbdb8f4b7	-0.09031051
27	0x3e05e966	0.13077316
28	0x3d8986f6	0.06715195
29	0xbd32c87c	-0.043648228
30	0x3da580f9	0.0808124
31	0x3dc960ca	0.09832914
32	0x3db4badb	0.08824702
33	0xbd39807c	-0.045288548
34	0xbd0544d2	-0.032536335
35	0x3c12fe55	0.00897177
36	0x3c01162a	0.0078788195
37	0x3e26161f	0.16219376
38	0xbd5baa57	-0.053629246
39	0x3e1b17d3	0.15145807
40	0x3da18b14	0.07887855
41	0x3e112dba	0.141776
42	0x3dcfd534	0.10148087
43	0x3d56915d	0.052384723
44	0x3c98f095	0.018669406
45	0xbca0beb1	-0.019622179
46	0xbd609bd6	-0.054836117
47	0xbd3aaf85	-0.045577545
48	0x3dfed9b0	0.12443864
49	0x3da1a901	0.07893563
50	0x3d9b65f5	0.07587806
51	0xbbfc94a2	-0.007708148
52	0x3bf8e1b6	0.007595266
53	0xbd96a994	-0.07356563
54	0xbc55a1f2	-0.013039099
55	0x3de51155	0.111849464
56	0xbde363b3	-0.111030005
57	0xbc8d17ec	-0.01722332
58	0x3d29571f	0.04134285
59	0x3bb781ec	0.0056002047
60	0x3de9a341	0.11408091
61	0x3e005cfc	0.1253547
62	0xbde96f48	-0.11398178
63	0x3db682cc	0.08911666
64	0xbe14884d	-0.1450512
65	0xbc1e6eff	-0.009670018
66	0xbe22d466	-0.15901336
67	0xbe0c6750	-0.13711286
68	0xbc91bc20	-0.0177899
69	0xbb5ddca5	-0.0033853438
70	0xbd3265e8	-0.043554217
71	0xbdd10be2	-0.102073446
72	0xbdc7449c	-0.09729883
73	0xbe165752	-0.14681748
74	0x3d324ac0	0.04352832
75	0xbd1e3902	-0.038628586
76	0xbcf17eaa	-0.029479343
77	0x3da39956	0.07988231
78	0xbd7c14ab	-0.061543148
79	0x3d36af27	0.044600632
80	0xbdd6b1b1	-0.10483111
81	0x3d1fb78b	0.0389934
82	0xbdfccc3e	-0.123436436
83	0xbe084b9b	-0.13310091
84	0xbda984b6	-0.08277266
85	0xbdd43496	-0.103615925
86	0xbd55e713	-0.052222323
87	0x3d08016b	0.033204477
88	0xbc40fa2f	-0.011778398
89	0xbddb533d	-0.10709236
90	0x3df04f99	0.11733932
91	0x3db5a244	0.0886884
92	0xbd411ff6	-0.04714962
93	0x3cb73e39	0.022368537
94	0xbe06d100	-0.13165665
95	0x3d272cbd	0.04081415
96	0xbd94089a	-0.07228203
97	0x3dbff53c	0.093729466
98	0xbb0b3a76	-0.0021244562
99	0xbd2ceb2e	-0.042216472
100	0x3daca021	0.0842898
101	0x3d9ae144	0.07562497
102	0xbe1b0cde	-0.15141627
103	0xbd14e572	-0.03635163
104	0xbe2a5d11	-0.16637065
105	0xbe1a27d9	-0.15054263
106	0xbc15aa79	-0.009134882
107	0xbcb0400f	-0.02151492
108	0xbe07860e	-0.13234732
109	0x3dd55e3d	0.10418365
110	0xbdd24aa0	-0.1026814
111	0xbd4af99d	-0.049554456
112	0x3d61edcc	0.05515842
113	0x3db0ab76	0.086264536
114	0xbb4bf3ca	-0.0031120651
115	0x3da37b03	0.07982447
116	0xbc6615a1	-0.014043243
117	0x3d039757	0.03212675
118	0xbd9dc7a3	-0.07704093
119	0x3da77129	0.081758805
120	0xbe0894ce	-0.13338014
121	0xbdee51a4	-0.116366655
122	0xbd6f87c3	-0.05847908
123	0xbd022378	-0.031772107
124	0x3ce52f42	0.027976636
125	0xbe16f19d	-0.14740606
126	0x3d6ede0b	0.058317225
127	0xbcf1f381	-0.029535057
128	0xbdb67710	-0.08909428
129	0xbd8834e1	-0.06650711
130	0xbda7d07d	-0.08194063
131	0xbdc94bce	-0.09828912
132	0x3dcbdc34	0.0995411
133	0xbd219ba2	-0.039455064
134	0x3c8c6747	0.01713909
135	0xbd0cd323	-0.034381043
136	0xbdd47c01	-0.10375214
137	0x3cc6f6a6	0.024287533
138	0xbd8c2a94	-0.06844059
139	0xbdfd2619	-0.12360782
140	0xbd8a4699	-0.06751747
141	0xbcd1a9e8	-0.025593713
142	0xbc727792	-0.014799016
143	0x3cf92abd	0.030415887
144	0xbdf44b5d	-0.11928437
145	0x3e081137	0.13287817
146	0x3d54aaca	0.05192069
147	0xbbbed803	-0.0058240904
148	0x3cffd2d9	0.03122847
149	0x3d724dd7	0.059156265
150	0x3e15ad19	0.14616813
151	0xbdd17601	-0.102275856
152	0x3d9a6ba6	0.075400636
153	0x3df23b41	0.11827708
154	0x3ddd083e	0.10792588
155	0xbd23f3bb	-0.04002736
156	0xbd0de886	-0.03464558
157	0xbcb55396	-0.022134583
158	0xbd6bda55	-0.057581265
159	0xbde7cd61	-0.1131847
160	0x3e13226e	0.14368603
161	0xbdb816cb	-0.089887224
162	0xbde204bc	-0.11036059
163	0x3c92b999	0.017910765
164	0xb8f86934	-0.00011845157
165	0x3deac45a	0.11463232
166	0x3dbb1571	0.09134949
167	0xbc5ce50c	-0.013482343
168	0xbcd429d2	-0.025898848
169	0x3dcf93e9	0.101356335
170	0xbde6a32d	-0.11261592
171	0x3df33610	0.11875546
172	0x3dc6a7ac	0.096999496
173	0xbddf366d	-0.10899053
174	0xbe0888ea	-0.13333479
175	0x3dabb285	0.08383659
176	0x3d183acd	0.03716545
177	0x3df7a6ee	0.12092386
178	0x3d87b7b4	0.066268355
179	0x3e00c4af	0.12575029
180	0x3e031da9	0.12804283
181	0x3e00d4c8	0.1258117
182	0xbc7d3157	-0.015453658
183	0x3e0830ed	0.13299914
184	0xbd94eaf4	-0.07271376
185	0xbd8454fa	-0.064615205
186	0x3c364d38	0.011126809
187	0xbc947799	-0.018123435
188	0x3d8dc81a	0.06922932
189	0xbdc967d5	-0.098342575
190	0xbde422b1	-0.11139429
191	0x3dd9bd4f	0.10631811
192	0x3d9fbe5d	0.07799981
193	0x3d9a4b1f	0.075338595
194	0x3dad11cb	0.08450659
195	0xbd2c3869	-0.042045984
196	0xbd89079e	-0.06690906
197	0xbda47b7a	-0.08031364
198	0xbd406f38	-0.046981066
199	0xbdcde4b4	-0.10053387
200	0x3dbdb969	0.0926388
201	0x3d9ccbfe	0.07656096
202	0x3cb5bba4	0.0221842
203	0x3d993797	0.07481306
204	0x3e07e3cf	0.13270496
205	0x3cca2d33	0.024679756
206	0xbc312012	-0.010810869
207	0x3df746ed	0.12074075
208	0x3df4da72	0.11955728
209	0x3d74a892	0.059731074
210	0x3d17ecb5	0.037090976
211	0x3d974104	0.073854476
212	0xbd0b8119	-0.034058664
213	0xbd1cb9c5	-0.0382631
214	0x3e0ac1ad	0.13550444
215	0xbd0bd814	-0.034141615
216	0xbdb9d040	-0.09072924
217	0x3def8483	0.116951965
218	0xbc6f63f2	-0.014611231
219	0xbb17f2d9	-0.002318552
220	0xbd7e5fba	-0.06210301
221	0xbd13d857	-0.03609499
222	0xbddd61fd	-0.108097054
223	0xbcdaf0b8	-0.026726112
224	0xbda30573	-0.07960024
225	0xbd94b2fd	-0.07260702
226	0x3d876783	0.0661154
227	0xbdf5dbc4	-0.120048076
228	0xbd83d922	-0.06437899
229	0x3e081979	0.13290967
230	0x3c9060d0	0.017624289
231	0xbd9ab0a0	-0.0755322
232	0x3df44154	0.11926523
233	0xbdd8b99d	-0.10582278
234	0x3e1073d2	0.14106682
235	0x3dca3e62	0.0987518
236	0x3d7b988a	0.06142477
237	0xbd096768	-0.03354588
238	0x3e0e36ca	0.13888088
239	0x3da1e9e9	0.07905943
240	0xbd8efaac	-0.069814056
241	0x3beecc99	0.0072875735
242	0x3e1f9f31	0.1558807
243	0xbdb05669	-0.086102314
244	0x3db935cd	0.09043465
245	0x3e05f589	0.13081945
246	0xbb1cacf2	-0.0023906794
247	0x3e228c67	0.15873872
248	0xbb183f83	-0.0023231215
249	0x3e012182	0.12610438
250	0xbc40f505	-0.011777167
251	0x3dfc875e	0.12330507
252	0x3d2caf38	0.04215929
253	0xbce1c024	-0.02755744
254	0xbabf3ebe	-0.0014590842
255	0xbd2c6aae	-0.042093925

bias f4 [3]
0	0xbdc86fc6	-0.09786944
1	0xbbb7b1ce	-0.005605913
2	0xbdaf9233	-0.08572807
